…
  value: 'TrainFreq(frequency=1, unit=<TrainFrequencyUnit.STEP: ''step''>)'
use_sde_at_warmup:
  desc: null
  value: 'False'
target_entropy:
  desc: null
  value: -10.0
log_ent_coef:
  desc: null
  value: None
target_update_interval:
  desc: null
  value: 1
ent_coef_optimizer:
  desc: null
  value: None
lr_schedule:
  desc: null
  value: <function constant_fn.<locals>.func at 0x16c9808b0>
policy:
  desc: null
  value: "SACPolicy(\n  (actor): Actor(\n    (features_extractor): FlattenExtractor(\n\
    \      (flatten): Flatten(start_dim=1, end_dim=-1)\n    )\n    (latent_pi): Sequential(\n\
    \      (0): Linear(in_features=669, out_features=256, bias=True)\n      (1): ReLU()\n\
    \      (2): Linear(in_features=256, out_features=256, bias=True)\n      (3): ReLU()\n\
    \    )\n    (mu): Linear(in_features=256, out_features=10, bias=True)\n    (log_std):\
    \ Linear(in_features=256, out_features=10, bias=True)\n  )\n  (critic): ContinuousCritic(\n\
    \    (features_extractor): FlattenExtractor(\n      (flatten): Flatten(start_dim=1,\
    \ end_dim=-1)\n    )\n    (qf0): Sequential(\n      (0): Linear(in_features=679,\
    \ out_features=256, bias=True)\n      (1): ReLU()\n      (2): Linear(in_features=256,\
    \ out_features=256, bias=True)\n      (3): ReLU()\n      (4): Linear(in_features=256,\
    \ out_features=1, bias=True)\n    )\n    (qf1): Sequential(\n      (0): Linear(in_features=679,\
    \ out_features=256, bias=True)\n      (1): ReLU()\n      (2): Linear(in_features=256,\
    \ out_features=256, bias=True)\n      (3): ReLU()\n      (4): Linear(in_features=256,\
    \ out_features=1, bias=True)\n    )\n  )\n  (critic_target): ContinuousCritic(\n\
    \    (features_extractor): FlattenExtractor(\n      (flatten): Flatten(start_dim=1,\
    \ end_dim=-1)\n    )\n    (qf0): Sequential(\n      (0): Linear(in_features=679,\
    \ out_features=256, bias=True)\n      (1): ReLU()\n      (2): Linear(in_features=256,\
    \ out_features=256, bias=True)\n      (3): ReLU()\n      (4): Linear(in_features=256,\
    \ out_features=1, bias=True)\n    )\n    (qf1): Sequential(\n      (0): Linear(in_features=679,\
    \ out_features=256, bias=True)\n      (1): ReLU()\n      (2): Linear(in_features=256,\
    \ out_features=256, bias=True)\n      (3): ReLU()\n      (4): Linear(in_features=256,\
    \ out_features=1, bias=True)\n    )\n  )\n)"
actor:
  desc: null
  value: "Actor(\n  (features_extractor): FlattenExtractor(\n    (flatten): Flatten(start_dim=1,\
    \ end_dim=-1)\n  )\n  (latent_pi): Sequential(\n    (0): Linear(in_features=669,\
    \ out_features=256, bias=True)\n    (1): ReLU()\n    (2): Linear(in_features=256,\
    \ out_features=256, bias=True)\n    (3): ReLU()\n  )\n  (mu): Linear(in_features=256,\
    \ out_features=10, bias=True)\n  (log_std): Linear(in_features=256, out_features=10,\
    \ bias=True)\n)"
critic:
  desc: null
  value: "ContinuousCritic(\n  (features_extractor): FlattenExtractor(\n    (flatten):\
    \ Flatten(start_dim=1, end_dim=-1)\n  )\n  (qf0): Sequential(\n    (0): Linear(in_features=679,\
    \ out_features=256, bias=True)\n    (1): ReLU()\n    (2): Linear(in_features=256,\
    \ out_features=256, bias=True)\n    (3): ReLU()\n    (4): Linear(in_features=256,\
    \ out_features=1, bias=True)\n  )\n  (qf1): Sequential(\n    (0): Linear(in_features=679,\
    \ out_features=256, bias=True)\n    (1): ReLU()\n    (2): Linear(in_features=256,\
    \ out_features=256, bias=True)\n    (3): ReLU()\n    (4): Linear(in_features=256,\
    \ out_features=1, bias=True)\n  )\n)"
critic_target:
  desc: null
  value: "ContinuousCritic(\n  (features_extractor): FlattenExtractor(\n    (flatten):\
    \ Flatten(start_dim=1, end_dim=-1)\n  )\n  (qf0): Sequential(\n    (0): Linear(in_features=679,\
    \ out_features=256, bias=True)\n    (1): ReLU()\n    (2): Linear(in_features=256,\
    \ out_features=256, bias=True)\n    (3): ReLU()\n    (4): Linear(in_features=256,\
    \ out_features=1, bias=True)\n  )\n  (qf1): Sequential(\n    (0): Linear(in_features=679,\
    \ out_features=256, bias=True)\n    (1): ReLU()\n    (2): Linear(in_features=256,\
    \ out_features=256, bias=True)\n    (3): ReLU()\n    (4): Linear(in_features=256,\
    \ out_features=1, bias=True)\n  )\n)"
batch_norm_stats:
  desc: null
  value: '[]'
batch_norm_stats_target:
  desc: null
  value: '[]'
ent_coef_tensor:
  desc: null
  value: tensor(0.0100)
_logger:
  desc: null
  value: <stable_baselines3.common.logger.Logger object at 0x173cfb6d0>
